molecule_gnn.pth (torch, 3000 bytes, 3 tensors)

conv1.bias f4 [16]
00000000: 32c7 52bb 0f17 9abc 1874 9b3a 7362 263a
00000010: 1d1e 05bb 11c0 ebba 3cd4 b43b 84e3 c8bb
00000020: 9273 eab9 8a65 cc3b 6cec aa3c 4fc9 eebb
00000030: ce04 76ba 1b30 3ab7 de4a d2ba 3b19 023b
-0.0032162187 -0.018809823 0.001186016 0.00063470675 -0.0020312138 -0.0017986317 0.0055184644 -0.0061306376
-0.00044718065 0.0062376903 0.020864688 -0.0072871814 -0.0009384871 -1.1097664e-05 -0.0016044041 0.0019851464

conv1.lin.weight f4 [16, 9]
00000000: 2f15 c33d d15d 9abe 93d3 c2be 0872 13be
00000010: 737d e7be e10f c63e a2b8 4dbe 4efa 32be
00000020: 9874 20be b192 093e 2448 873e f5c3 89bd
00000030: 1d83 d0bd 1d76 6cbe ede7 9d3e 40ec d0be
00000040: b0ef b5be 15f4 a8be d6a7 093e 8cf7 c73e
00000050: 50e2 f73e 59dc bebd fb0b afbe f87d 8ebe
00000060: 8c88 af3e 87e0 01bd 9786 c5be f1a5 d4be
00000070: 991d bb3d d243 4d3e e768 fa3d 35e7 9d3e
00000080: 6ca5 d13d 5a69 d5be eb68 a2be 793d 8d3e
00000090: 8cfe a33a 8e0b d0be 65fa 5ebe 0edb 01be
000000a0: df76 ed3e ec5d c2be c176 e8be 647b ec3e
000000b0: 3114 6dbe 0f1f 783e b923 cb3e 7022 713e
000000c0: f8f4 b33c e2e0 4fbd e560 d03e e62f 8abd
000000d0: 66a0 163e 0f8a 123e 65ce 0fbd 2667 4b3e
000000e0: 1801 f83d 5aa3 033f bbff 893d 33ad fdbc
000000f0: 20fe 77be 4fe6 be3e c36e 9e3d 99d8 38be
00000100: d718 e43d 5c1b c43c 92cc 483e 35f1 6bbe
00000110: 6fe3 cabe 6c13 e1be 2253 f1be d038 c6be
00000120: 081d a53e 3991 b7be f1b7 f53e bc6c 0bbe
00000130: cbc7 b33e 06cc 9ebe c804 69bd 8736 9abe
00000140: 3c90 e7be 6016 c93e 8dcd 3d3e 89b6 22bc
00000150: 108c a7be 3779 12be 63a6 79be d0d0 6fbe
00000160: 6890 603e 5a18 d1be 432d e23e 1e18 5a3e
00000170: a6e2 a1be 9f87 b43c 74df 513e 76c2 dabe
00000180: a533 a0be f461 bb3e 0386 bb3e e69d 9abe
00000190: 34ef 503e 1924 963d 6c48 b43e 7778 80be
000001a0: 8375 d8be faf8 fabe 9145 10be 5a4a d33e
000001b0: 4f1d a93d ad4f 123e 9b44 f4be fe70 983e
000001c0: f37c 56be 046a d53d 959c e23e d9e6 84be
000001d0: d383 8a3e c563 75be b2ac 033e aad4 82be
000001e0: d2e4 f7be 241b 08be 036e ee3e 56ef ec3d
000001f0: 2199 d53e 2f16 aebe 5b3c 91be 6da1 20be
00000200: af26 8e3e 609b e23e e3eb adbe 7fd0 dfbe
00000210: c5db d73e 0533 ddbe ab12 683e 32ad 76be
00000220: 739b b5be aa7b c8be f574 d93e 3123 6a3e
00000230: 341c 58be 4477 10be 7177 5d3e 8191 e3be
0.09525525 -0.301497 -0.38052043 -0.14398968 -0.45212898 0.3868399 -0.20089963 -0.17478296
-0.15669477 0.13434865 0.26422226 -0.06726829 -0.10181258 -0.23091932 0.30841008 -0.40805244
-0.3553443 -0.3299872 0.1344293 0.3905605 0.4841485 -0.09319372 -0.34188828 -0.27830482
0.34283864 -0.031708267 -0.38579246 -0.41532853 0.09136505 0.20045403 0.1222704 0.3084046
0.1023663 -0.4168194 -0.3172067 0.27585962 0.0012511774 -0.40633816 -0.21775205 -0.12681219
0.46379754 -0.37962282 -0.45403102 0.4618789 -0.23152234 0.24230598 0.39675692 0.23548293
0.021967396 -0.050751574 0.40698925 -0.06747417 0.14709625 0.14310478 -0.035108943 0.19863567
0.121095836 0.5142113 0.0673823 -0.030966377 -0.24218035 0.37285087 0.0773597 -0.18051375
0.1113755 0.023938827 0.19609287 -0.23041232 -0.39626643 -0.4396013 -0.47133738 -0.3871522
0.32248712 -0.35852984 0.479919 -0.13615698 0.35113367 -0.31015033 -0.056889325 -0.30119726
-0.4522723 0.39274883 0.18535443 -0.009931215 -0.32724047 -0.14304052 -0.24379878 -0.234195
0.21930087 -0.4083889 0.44175157 0.21298262 -0.31618232 0.022037325 0.20495397 -0.42726487
-0.31289402 0.3659817 0.3662568 -0.30198592 0.20403749 0.07331104 0.35211504 -0.25091907
-0.42277154 -0.4901808 -0.14089037 0.41267663 0.08257543 0.14288206 -0.47708592 0.29773706
-0.20946102 0.104206115 0.44260088 -0.25957373 0.270537 -0.2396384 0.12858847 -0.25552875
-0.48416764 -0.13291603 0.46568307 0.11569087 0.4171839 -0.340013 -0.2836636 -0.15686579
0.27763888 0.44259167 -0.3396903 -0.43713757 0.42159858 -0.43202987 0.22663371 -0.24089506
-0.3547016 -0.39156848 0.42472044 0.22864987 -0.21104509 -0.14107996 0.21627595 -0.44446948

conv2.lin.weight f4 [1, 16]
00000000: 7068 a03e dc9c de3e 8260 d3be a675 f1bd
00000010: 5ca3 ed3e 5dc8 bc3e b513 e5be b35a 223f
00000020: 8c8d b93d db06 98bd 00f7 c9be 8081 b13e
00000030: 6aa2 3c3d 15ca 3d3e feba 433e 39ab 84bc
0.3132968 0.4347905 -0.41284567 -0.11790018 0.46413696 0.36871615 -0.44741598 0.63419646
0.09060201 -0.074231826 -0.3944626 0.34669113 0.046053328 0.1853412 0.191143 -0.016194927
